mnist/part2-mnist/mnist_model_fully_connected.pt (torch_old, 921557 bytes, 8 tensors)

weight f4 [32, 1, 3, 3]
0.27016187 -0.05427758 -0.86079204 0.18451437 0.92884284 0.2303068 -0.65037495 0.30003962
0.022732759 -0.5095458 0.29206082 0.17031634 -0.32905635 0.13476105 0.33405566 -0.39898762
0.21817873 0.46013492 -0.2112963 -0.15509804 -0.25901768 -0.399175 -0.355201 -0.017615698
-0.35423124 0.19974208 0.37693015 -0.19375558 -0.34284702 0.021786267 0.01761556 0.13912736
0.10966944 -0.29665646 0.027797472 0.3653968 0.21059321 0.45548105 -0.06870823 0.013023139
-0.099001504 -0.6046227 0.4006887 -0.07723952 0.02911954 0.03607171 -0.47325015 -0.22667292
0.29944175 -0.6144328 -0.496309 0.75197333 0.5593553 0.2991723 -0.2062605 -0.67196226
-0.44677082 -0.42206165 0.07146803 0.63123554 0.61586934 0.5566556 -0.23317093 0.12188317
-0.37937889 -0.18289974 0.35508442 -0.17397985 0.10038037 0.29913145 -0.04548856 0.11144034
0.42935196 -0.42263722 -0.7523687 0.32434744 0.3173323 -0.010388284 -0.02462154 0.3171814
0.22501096 -0.1907243 0.14466485 -0.32175395 0.22423255 0.04910618 -0.60598594 0.48711568
0.46940902 -0.51351225 -0.060408834 0.13884373 -0.048919987 -0.056016546 -0.21878658 0.23162368
-0.31299356 0.27074748 -0.048442114 0.011704217 -0.40178916 -0.25720337 -0.51893365 -0.117348745
-0.34450188 -0.36015958 -0.15572184 -0.03993309 -0.09642812 -0.19839537 -0.087963566 -0.20385808
-0.37121573 -0.29473516 0.3239679 0.08155063 -0.31661347 0.27578667 -0.0674651 -0.5049338
-0.17040315 -0.14901346 -0.2845712 0.44281504 0.13936612 0.49319342 -0.33272004 -0.24247321
0.12749948 0.5327518 0.5618581 0.4655441 -0.23916283 -0.31129384 -0.53274214 -0.47459745
-0.5997581 -0.43778548 -0.14615181 0.1887655 0.26169017 -0.046232954 0.39604768 0.22223406
-0.5784319 0.19586623 0.47916368 -0.72802216 0.25601426 0.40319443 -0.4918839 0.14724088
0.040519364 -0.7234018 0.47796628 0.5843573 -0.042304114 1.0256056 -0.42247096 0.5660206
0.37076634 -0.8427486 0.85660475 0.45142007 0.5586203 -0.20268138 0.34949473 -0.08481548
-0.7949411 -1.0653008 -0.23607144 0.1207098 0.019644696 -0.009350748 -0.21742257 -0.15306625
-0.3194402 -0.26890668 -0.2613301 0.15490219 0.64614886 0.6889101 -0.32488614 0.40107778
-0.5187941 -0.669242 -0.17527553 -0.40274602 -0.032768246 0.29703438 0.028511884 -0.4298088
0.4128359 -0.25726646 -0.23144327 0.15530021 0.09948236 -0.18706533 0.042238962 -0.015621064
-0.18301682 -0.19476224 0.22335738 -0.20908263 -0.14812198 0.10200089 -0.015398473 -0.3337957
0.32167342 -0.062434793 -0.4376472 0.28348568 0.17614354 -0.48542175 0.2829813 0.045882743
-0.17562674 0.35721883 0.1421748 -0.07984849 0.03673888 0.5045624 -0.5682569 -0.4108102
-0.047532752 -0.19662806 0.17775829 -0.3334119 0.2551549 0.36078206 -0.10401225 -0.1255192
0.060605984 0.0960921 -0.2668063 -0.14650495 -0.2479461 0.41208795 -0.23433846 -0.42578796
-0.060550287 0.40630212 0.5712644 0.3692609 0.07004148 -0.23521923 -0.014193866 0.14920203
-0.23198599 -0.36499628 -0.099805705 -0.25406954 -0.4866199 -0.55810386 0.057651132 -0.4378672
00000000: a852 8a3e 2b52 5ebd de5c 5cbf 56f1 3c3e
00000010: a5c8 6d3f 8cd5 6b3e f97e 26bf cb9e 993e
00000020: 0d3a ba3c 9871 02bf ff88 953e 6867 2e3e
00000030: 137a a8be cdfe 093e 5809 ab3e 1b48 ccbe
00000040: 3f6a 5f3e ce96 eb3e 0f5e 58be 05d2 1ebe
00000050: f79d 84be aa60 ccbe e8dc b5be cc4e 90bc
00000060: cc5d b5be 3089 4c3e fdfc c03e dd67 46be
00000070: a589 afbe 1d79 b23c 824e 903c 6777 0e3e
00000080: 5f9a e03d 5be3 97be 86b7 e33c 4a15 bb3e
00000090: bfa5 573e d034 e93e e7b6 8cbd 015f 553c
000000a0: 4dc1 cabd 8ec8 1abf 1227 cd3e c12f 9ebd
000000b0: 1a8c ee3c eebf 133d d84d f2be f21c 68be
000000c0: 6e50 993e 784b 1dbf 371c febe 5381 403f
000000d0: e931 0f3f 1d2d 993e f435 53be b805 2cbf
000000e0: 25bf e4be 7718 d8be d55d 923d a798 213f
000000f0: 9da9 1d3f fb80 0e3f 5cc4 6ebe e29d f93d
00000100: f33d c2be 124a 3bbe a0cd b53e c627 32be
00000110: 3994 cd3d c227 993e 3652 3abd d53a e43d
00000120: 05d4 db3e e863 d8be 3c9b 40bf de10 a63e
00000130: 6179 a23e 9f33 2abc 1db3 c9bc 9a65 a23e
00000140: 4669 663e 3b4d 43be 0623 143e efbc a4be
00000150: 389d 653e 9023 493d e521 1bbf 3a67 f93e
00000160: 6156 f03e 8a75 03bf 416f 77bd 0d2d 0e3e
00000170: 5360 48bd 9b71 65bd 9709 60be c22e 6d3e
00000180: b140 a0be 6a9f 8a3e 3d6b 46bd 0bc3 3f3c
00000190: 4fb7 cdbe 29b0 83be d6d8 04bf 8a54 f0bd
000001a0: 8d62 b0be d666 b8be 8c75 1fbe e190 23bd
000001b0: 1b7c c5bd 2828 4bbe 3e26 b4bd 2cc0 50be
000001c0: fd0f bebe 87e7 96be 1fdf a53e 0404 a73d
000001d0: 291b a2be e933 8d3e 242b 8abd 5743 01bf
000001e0: 2a7e 2ebe fc96 18be 51b3 91be a7b8 e23e
000001f0: feb5 0e3e d983 fc3e 485a aabe e64a 78be
00000200: 398f 023e 6c62 083f efd5 0f3f cc5b ee3e
00000210: 1ae7 74be e861 9fbe ca61 08bf 70fe f2be
00000220: bf89 19bf 6b25 e0be d2a8 15be be4b 413e
00000230: 41fc 853e c45e 3dbd c3c6 ca3e 5391 633e
00000240: 1d14 14bf 2891 483e f154 f53e a95f 3abf
00000250: 4d14 833e 806f ce3e 35d8 fbbe 50c6 163e
00000260: a2f7 253d dc30 39bf ffb7 f43e 7198 153f
00000270: 1447 2dbd 0b47 833f 1d4e d8be bae6 103f
00000280: 16d5 bd3e 5fbe 57bf 734a 5b3f 8820 e73e
00000290: bd01 0f3f b58b 4fbe f9f0 b23e bdb3 adbd
000002a0: 4381 4bbf c75b 88bf b6bc 71be b336 f73d
000002b0: eaed a03c e133 19bc 06a4 5ebe 66bd 1cbe
000002c0: aa8d a3be 23ae 89be 0fcd 85be ae9e 1e3e
000002d0: 036a 253f 6a5c 303f 7a57 a6be 115a cd3e
000002e0: b1cf 04bf 7253 2bbf 6e7b 33be ba34 cebe
000002f0: ff37 06bd e414 983e c191 e93c e60f dcbe
00000300: 3a5f d33e 6eb8 83be 77ff 6cbe 0507 1f3e
00000310: 68bd cb3d 0e8e 3fbe c302 2d3d 7eef 7fbc
00000320: c368 3bbe c16f 47be ccb7 643e c219 56be
00000330: 4aad 17be d8e5 d03d e049 7cbc 45e7 aabe
00000340: 61b2 a43e a0bb 7fbd 4b13 e0be 0925 913e
00000350: f95e 343e 3389 f8be ede2 903e 8bef 3b3d
00000360: 7fd7 33be 63e5 b63e 4596 113e 9b87 a3bd
00000370: 827b 163d 002b 013f 4979 11bf b755 d2be
00000380: b4b1 42bd de58 49be 4506 363e f7b4 aabe
00000390: aaa3 823e 6db8 b83e 6004 d5bd 1b88 00be
000003a0: fb3d 783d efcb c43d d69a 88be 6505 16be
000003b0: 95e5 7dbe 31fd d23e 6cf6 6fbe e100 dabe
000003c0: 9403 78bd d506 d03e 623e 123f c40f bd3e
000003d0: e871 8f3d 4fdd 70be 648d 68bc 6bc8 183e
000003e0: bc8d 6dbe cbe0 babe ef66 ccbd 6715 82be
000003f0: 3e26 f9be e5df 0ebf 9823 6c3d 2130 e0be

bias f4 [32]
-0.24488887 -0.1546597 0.15522206 -0.12824495 -0.19269575 -0.177692 -0.06997918 -0.1282479
-0.2923971 -0.029657325 -0.3041063 0.460711 0.2568661 -0.13428101 -0.004561019 0.037319724
-0.028717648 -0.6826842 -0.08767478 -0.1435848 0.005564285 -0.037290853 -0.0528631 0.013045029
-0.037139136 -0.14781003 -0.025308406 -0.022646254 -0.3028005 -0.1632333 -0.19281168 0.033411555
00000000: 26c4 7abe 1d5f 1ebe 88f2 1e3e a552 03be
00000010: 0952 45be e4f4 35be 3f51 8fbd 6b53 03be
00000020: 13b5 95be ebf3 f2bc d2b3 9bbe 50e2 eb3e
00000030: f483 833e f680 09be 9a74 95bb 91dc 183d
00000040: 4641 ebbc 64c4 2ebf d68e b3bd e507 13be
00000050: 9b54 b63b 4bbe 18bd fa86 58bd d1ba 553c
00000060: 351f 18bd 835b 17be 9353 cfbc a384 b9bc
00000070: ab08 9bbe a126 27be 6d70 45be 8eda 083d

weight f4 [64, 32, 3, 3]
-0.07057689 0.082052 0.012883959 0.029922055 -0.081973955 -0.09251599 0.020033238 0.1312787
0.008680629 -0.087093845 -0.0015776609 0.14483835 -0.06746472 -0.04575274 -0.03226458 0.028931092
0.032569844 -0.019323101 0.022553917 -0.068929665 -0.06512756 0.005630766 -0.044682954 0.008193813
-0.096472725 -0.03361061 -0.028747266 0.034134813 -0.026285276 0.0071073505 0.06429749 -0.067771435
0.014632015 -0.015263292 -0.03297961 0.061111692 -0.048709966 -0.07403571 -0.0055283415 -0.057174437
0.033121057 -0.041243695 -0.01992423 -0.019395221 -0.0036989804 0.032257657 -0.0936451 -0.09844898
0.12667803 0.2174774 0.08012679 -2.6131005e-05 0.01847116 0.04836831 -0.04906988 -0.05744817
-0.03451486 0.060608715 -0.01719857 -0.044727102 -0.031670287 0.0164898 0.013034181 -0.0675782
-0.004353918 0.019830149 -0.011711818 0.07687776 0.042951494 0.037842404 0.018104043 0.027267233
-0.035115123 -0.037132025 -0.023731228 -0.0485424 0.028733099 -0.008681949 0.025981834 0.07983751
0.0044414555 -0.07037636 -0.06959091 -0.035053764 0.055784218 0.07663988 -0.062896915 -0.00020004569
0.043856476 0.06775643 0.01844028 0.038902637 -0.03747907 -0.0076549063 -0.040800475 -0.057098147
-0.00376691 -0.036333144 0.022389578 0.029893873 -0.09415175 -0.0960744 -0.057565734 -0.00074472086
-0.102351464 -0.013212757 -0.08676036 -0.07635224 0.059128202 -0.04538848 -0.10207816 -0.03623437
-0.021972569 -0.0042301468 -0.0140414005 0.010694405 -0.076161414 -0.052564822 -0.10335831 -0.06474597
0.058126032 0.04059193 -0.0021062866 -0.039196376 -0.00596928 0.023853002 0.03217198 0.0071449815
0.04967568 -0.063493125 -0.07594135 -0.012382201 0.04952195 -0.037414964 -0.11958752 -0.06873793
-0.07630904 -0.001662348 0.058089923 -0.03917142 -0.10715422 -0.03974895 -0.018038707 0.06633966
-0.0051212357 0.061712638 0.06745244 -0.03914346 -0.0964318 -0.00044563654 -0.012323936 -0.05364975
-0.013933262 -0.10360504 -0.067581646 0.079366595 -0.03931256 -0.101177126 -0.14732596 -0.020658595
-0.062115964 0.043089718 0.011077104 0.042180832 0.115007885 -0.09032374 0.047067724 0.042237163
-0.074116655 0.008523289 -0.07536259 0.037703604 0.053202916 -0.024414575 -0.044108525 -0.019382585
-0.052733704 0.04405022 0.010891979 0.026404634 -0.16146685 -0.069996744 -0.031223072 -0.09851844
-0.062389605 -0.015996069 -0.08793096 -0.123341314 -0.13706233 -0.10539388 -0.0041116383 -0.044542164
0.01440595 0.017950475 -0.026833566 -0.022239886 0.039112248 -0.048220214 0.040390313 0.014083585
0.021052612 0.010980444 0.05456701 0.020337196 -0.026598636 0.04448612 -0.013838517 -0.012826279
-0.025860224 0.0051332526 -0.040782228 -0.03506726 -0.0045346622 -0.06813117 -0.014961862 -0.0066768867
-0.015601085 0.039228745 0.08231526 -0.02811534 0.0010466869 0.08050226 0.06860373 0.02329203
-0.058198288 -0.10078164 0.019977175 0.06203262 0.04373305 -0.036015887 -0.017207118 0.06075382
-0.010583078 0.045162283 -0.0707741 -0.090359464 -0.025603676 0.13318548 0.019464169 -0.0012836622
0.0013390756 0.08407418 0.043518864 -0.00808919 0.0001834588 -0.03142959 -0.015087931 -0.027105756
0.020909678 0.014811914 0.028569486 -0.059642524 -0.041084465 -0.08801469 0.052057702 0.070472024
00000000: 9e8a 90bd e10a a83d 3e17 533c 191f f53c
00000010: f6e1 a7bd 0679 bdbd bf1c a43c ec6d 063e
00000020: 3239 0e3c 425e b2bd 84c9 ceba 8150 143e
00000030: f12a 8abd 3a67 3bbd dd27 04bd e600 ed3c
00000040: f567 053d 7b4b 9ebc fec2 b83c ff2a 8dbd
00000050: 9961 85bd 4a82 b83b 7905 37bd 583f 063c
00000060: 7e93 c5bd 47ab 09bd 637f ebbc f2d0 0b3d
00000070: 3854 d7bc c7e4 e83b 67ae 833d c0cb 8abd
00000080: 1ebb 6f3c e312 7abc a115 07bd 4150 7a3d
00000090: 1a84 47bd 09a0 97bd 1727 b5bb be2f 6abd
000000a0: f2a9 073d 26ef 28bd 2438 a3bc bae2 9ebc
000000b0: 986a 72bb 9b20 043d 01c9 bfbd 9e9f c9bd
000000c0: e3b7 013e 65b2 5e3e 8419 a43d e833 dbb7
000000d0: d550 973c d91d 463d 80fd 48bd c64e 6bbd
000000e0: 745f 0dbd d840 783d 04e4 8cbc c433 37bd
000000f0: b4b8 01bd 9e15 873c 518d 553c 7066 8abd
00000100: 50ab 8ebb d672 a23c ede2 3fbc 1672 9d3d
00000110: e8ed 2f3d a300 1b3d ee4e 943c 885f df3c
00000120: e0d4 0fbd c017 18bd fe67 c2bc 65d4 46bd
00000130: ad61 eb3c bc3e 0ebc dbd7 d43c d981 a33d
00000140: a189 913b 7b21 90bd ae85 8ebd 8994 0fbd
00000150: fe7d 643d 5ff5 9c3d 19d0 80bd 5bc3 51b9
00000160: d9a2 333d e2c3 8a3d 1210 973c 5f58 1f3d
00000170: a783 19bd 02d6 fabb 661e 27bd bfdf 69bd
00000180: 43de 76bb 10d2 14bd 596a b73c ffe3 f43c
00000190: a2d2 c0bd a8c2 c4bd 0cca 6bbd 5f39 43ba
000001a0: a59d d1bd 527a 58bc 6aaf b1bd 905e 9cbd
000001b0: 6a30 723d 45e9 39bd 5b0e d1bd 7e6a 14bd
000001c0: d1ff b3bc 0b9d 8abb e70d 66bc 9637 2f3c
000001d0: 84fa 9bbd 364e 57bd 86ad d3bd 8999 84bd
000001e0: 9015 6e3d b943 263d a009 0abb 618c 20bd
000001f0: f399 c3bb 5f67 c33c c4c6 033d 7320 ea3b
00000200: ba78 4b3d af08 82bd 2387 9bbd b7de 4abc
00000210: 87d7 4a3d 6f40 19bd 4dea f4bd 79c6 8cbd
00000220: ea47 9cbd 25e3 d9ba b3ef 6d3d 3672 20bd
00000230: ac73 dbbd cccf 22bd e9c5 93bc 16dd 873d
00000240: 0ad0 a7bb 64c6 7c3d 8124 8a3d e554 20bd
00000250: 097e c5bd 53a4 e9b9 56ea 49bc d7bf 5bbd
00000260: 5648 64bc e12e d4bd 3f68 8abd f48a a23d
00000270: 3506 21bd f435 cfbd 9edc 16be 373c a9bc
00000280: 4f6d 7ebd d87e 303d be7c 353c cfc5 2c3d
00000290: 4189 eb3d a7fb b8bd 16ca 403d e000 2d3d
000002a0: 79ca 97bd 44a5 0b3c b457 9abd 186f 1a3d
000002b0: 4deb 593d 1301 c8bc 24ab 34bd 3ac8 9ebc
000002c0: 4cff 57bd 016e 343d 4574 323c 884e d83c
000002d0: 9157 25be 745a 8fbd 87c7 ffbc 09c4 c9bd
000002e0: 3e8c 7fbd 300a 83bc 2615 b4bd 5f9a fcbd
000002f0: 115a 0cbe bfd8 d7bd ecba 86bb d871 36bd
00000300: ef06 6c3c e00c 933c 11d2 dbbc 6c30 b6bc
00000310: 2a34 203d 8f82 45bd 5070 253d d6be 663c
00000320: 8776 ac3c 52e7 333c a881 5f3d 319a a63c
00000330: 62e5 d9bc 1437 363d f2ba 62bc 5025 52bc
00000340: d2d8 d3bc d834 a83b 440b 27bd b0a2 0fbd
00000350: 8197 94bb 5b88 8bbd 9922 75bc c9c9 dabb
00000360: b19b 7fbc 52ae 203d e794 a83d 2452 e6bc
00000370: fc30 893a 5ede a43d 1d80 8c3d edce be3c
00000380: 5461 6ebd 9b66 cebd 2ca7 a33c eb15 7e3d
00000390: 6d21 333d 6585 13bd f1f5 8cbc ffd8 783d
000003a0: a564 2dbc 16fc 383d 03f2 90bd 620e b9bd
000003b0: cdbe d1bc c661 083e 5273 9f3c 8e40 a8ba
000003c0: ec83 af3a 152f ac3d d640 323d 8688 04bc
000003d0: d95e 4039 50bc 00bd 5f33 77bc e40c debc
000003e0: c64a ab3c acad 723c 8e0a ea3c b84b 74bd
000003f0: 2f48 28bd 0c41 b4bd 753a 553d a353 903d

bias f4 [64]
-0.035410453 -0.0119502675 0.026761489 -0.017740695 -0.07036161 -0.03176315 -0.13145785 -0.21299686
-0.06360771 -0.23762527 -0.056621477 -0.040800948 -0.03379849 -0.068888724 -0.10590683 -0.053235915
-0.13220327 -0.044050194 -0.04893776 -0.061891437 -0.077057704 -0.04263806 -0.01561745 -0.04346722
-0.10511332 -0.039909855 -0.015197359 -0.054878566 -0.1560652 -0.030314399 -0.025275297 -0.12508902
-0.11507212 -0.25071818 -0.049830966 -0.04020126 -0.08629084 -0.01486056 -0.04567461 -0.03709554
-0.03370778 -0.067000434 -0.2119758 -0.042171203 -0.046028502 -0.07708924 0.02337558 -0.009100381
-0.018073479 -0.15624711 -0.041362047 0.026756365 -0.067246534 -0.1887372 -0.09512528 -0.034747243
-0.03858222 -0.22589089 -0.03952782 -0.0512675 -0.022173436 -0.18760335 -0.058982745 -0.044732638
00000000: 8d0a 11bd 0ecb 43bc e93a db3c ef54 91bc
00000010: bf19 90bd 141a 02bd e39c 06be d91b 5abe
00000020: c244 82bd 0a54 73be eceb 67bd e51e 27bd
00000030: 4970 0abd 8815 8dbd aee5 d8bd e70d 5abd
00000040: 4b60 07be fa6d 34bd f672 48bd e081 7dbd
00000050: 6ed0 9dbd 3fa5 2ebd 55e0 7fbc af0a 32bd
00000060: a745 d7bd 8478 23bd 58fe 78bc 59c8 60bd
00000070: 8ecf 1fbe e755 f8bc 240e cfbc 5617 00be
00000080: efaa ebbd 225e 80be 8e1b 4cbd 14aa 24bd
00000090: 40b9 b0bd b579 73bc 4d15 3bbd 7ef1 17bd
000000a0: 2b11 0abd 8637 89bd 2f10 59be b6bb 2cbd
000000b0: 6288 3cbd f7e0 9dbd 257e bf3c c419 15bc
000000c0: d50e 94bc 3eff 1fbe 406b 29bd 2a30 db3c
000000d0: 8db8 89bd 5344 41be 0bd1 c2bd 2053 0ebd
000000e0: 6408 1ebd f14f 67be ece7 21bd dffd 51bd
000000f0: 11a5 b5bc 181b 40be e497 71bd 9239 37bd

weight f4 [128, 1600]
-0.023910042 0.00025314785 0.0556262 0.020408556 0.027358543 0.0052709947 -0.024372201 -0.01743136
-0.0019841266 0.013771285 -0.018662436 -0.01967 0.003500897 0.02735017 0.02994679 0.007795827
0.046212543 0.044162903 0.0158789 0.023566164 -0.010124346 0.0025641927 0.013838531 0.0005315453
0.0048225657 -0.016530497 -0.0018257861 0.0033619353 0.019822046 -0.023752237 -0.024723677 -0.0059680254
0.012559362 0.02532074 -0.00071839703 -0.010896846 -0.026090637 0.051658604 0.039676003 0.03775934
-0.03320341 -0.0038891672 0.019823052 -0.011988684 0.002260222 0.009815508 0.0018210114 0.038188837
0.0145958 -0.037977733 -0.005743258 -0.0022831934 0.027269235 -0.019307349 -0.009683398 -0.017364103
-0.007928144 0.017769055 -0.0035852664 -0.0022774462 -0.014072439 -0.0025261466 0.0046397056 0.0142900245
-0.018428575 -0.015353685 0.003281387 -0.015952704 0.023417486 -0.015229855 0.018046457 -0.01886956
0.0008708082 0.010686343 -0.012919123 -0.02013234 -0.022209063 -0.029427346 -0.076301314 -0.0009103432
0.023304107 -0.0097008925 0.016796436 -0.061255094 0.0030078026 0.0088931 0.037051488 0.05711449
0.01613017 -0.0018443217 0.0007564714 -0.05464108 0.0029920517 0.02029306 0.0075004566 0.02108716
-0.03187475 -0.0106345555 -0.0287668 0.015039786 0.023245484 0.028160531 0.054491077 0.049754083
0.011827181 -0.023363145 -0.013820961 0.054979898 0.046270672 -0.0024438757 0.0010797001 -0.023858843
-0.029701808 0.009679596 -0.0031681065 -0.014284295 -0.0008220494 -0.010433204 0.016308729 -0.002267577
0.015425676 0.09302294 0.03456271 0.005972334 -0.039305177 -0.007704098 -0.000960055 0.036813177
0.02688637 -0.02281572 -0.028035937 0.005135409 0.030000484 -0.0038388309 -0.0040736296 -0.030727822
0.018065691 0.08299383 0.038626518 0.029060287 -0.03117259 0.031651963 0.008955137 -0.004657428
-0.008439123 -0.0042461217 0.024429893 -0.047002915 0.014679823 -0.024014097 -0.015952853 -0.0028710754
-0.02833971 0.01510945 0.0187494 0.018525483 0.005821696 0.038876288 -0.0012272901 -0.0006142638
-0.00795883 0.038057648 0.003018362 0.00882181 -0.008123722 -0.013680852 -0.021655107 -0.008282624
-0.04001886 -0.004601509 0.0025902544 -0.02445556 0.00045799185 0.012497984 -0.014545426 0.0010688172
0.019079369 0.044175822 0.122152306 -0.0024884467 0.0012525814 0.052528556 0.053366996 0.009431676
0.0045200726 -0.003173407 -0.028094085 -0.011639599 -0.0324882 0.008220513 -0.028573195 -0.008409844
-0.030529503 -0.008793416 0.036354598 -0.0027893914 0.006727969 -0.075774364 0.011151907 -0.0118581755
0.009736865 -0.025720231 0.035242964 0.009271363 0.0205413 0.00090676505 0.012120545 -0.040997107
-0.034488153 -0.017644936 -0.006675155 -0.019935504 0.012669864 -0.0017285477 0.021623652 0.0066567385
0.0429526 0.057629626 0.028608834 -0.029590702 0.019419352 0.046296764 0.022507418 0.010114247
-0.015809093 -0.033429064 0.051440742 0.04717404 0.07996396 0.024350323 -0.02703348 0.016400466
-0.04839314 0.0460675 0.05109149 -0.020455802 -0.06467562 -0.030367937 0.03601338 -0.022470426
0.011216593 -0.02928011 0.053008072 0.0061894367 -0.08791637 0.009682001 -0.007109463 -0.05162151
-0.033268016 -0.030291649 -0.014372036 -0.012228447 -0.039680768 -0.0140895555 0.0063723484 0.004461062
00000000: fede c3bc eeb8 8439 4cd8 633d d82f a73c
00000010: 061f e03c 4fb8 ac3b 36a8 c7bc 36cc 8ebc
00000020: 1f08 02bb f5a0 613c f7e1 98bc fb22 a1bc
00000030: 4e6f 653b 770d e03c f852 f53c 2374 ff3b
00000040: 5d49 3d3d 29e4 343d 7814 823c d40d c13c
00000050: 96e0 25bc 040c 283b 02bb 623c 6757 0b3a
00000060: 9d06 9e3b f76a 87bc 374f efba ea53 5c3b
00000070: d861 a23c 0d94 c2bc 4f89 cabc 6d8f c3bb
00000080: c8c5 4d3c 716d cf3c cf52 3cba af88 32bc
00000090: 08bc d5bc f997 533d 4e83 223d 8aa9 1a3d
000000a0: 4d00 08bd 66e1 7ebb f463 a23c 2f6c 44bc
000000b0: 3c20 143b 39d1 203c 01af ee3a e66b 1c3d
000000c0: 3923 6f3c 8a8e 1bbd f131 bcbb a1a1 15bb
000000d0: bb63 df3c 722a 9ebc 1da7 1ebc 2a3f 8ebc
000000e0: 0ce5 01bc 6990 913c caf6 6abb 3541 15bb
000000f0: 1690 66bc b58d 25bb ac08 983b b520 6a3c
00000100: 86f7 96bc 068e 7bbc 8a0c 573b 3faf 82bc
00000110: 07d6 bf3c a486 79bc 2ad6 933c 5694 9abc
00000120: f346 643a c515 2f3c bbaa 53bc 94ec a4bc
00000130: c8ef b5bc 9e11 f1bc dd43 9cbd 19a4 6eba
00000140: 41e8 be3c 7ef0 1ebc ae98 893c 9fe6 7abd
00000150: 8e1e 453b 5db4 113c 4dc3 173d e2f0 693d
00000160: 6b23 843c 2bbd f1ba f04d 463a 53cf 5fbd
00000170: 4c16 443b a23d a63c 64c6 f53b fbbe ac3c
00000180: 198f 02bd 8f3c 2ebc 5aa8 ebbc 6f69 763c
00000190: 506d be3c eab0 e63c 0932 5f3d f0ca 4b3d
000001a0: cbc6 413c 1164 bfbc 5071 62bc 9a32 613d
000001b0: 5186 3d3d 6e29 20bb b984 8d3a 9f73 c3bc
000001c0: 3551 f3bc 2b97 1e3c 02a0 4fbb ad08 6abc
000001d0: cd7e 57ba 07f0 2abc e299 853c a19b 14bb
000001e0: f9bb 7c3c d082 be3d a191 0d3d 92b3 c33b
000001f0: 77fe 20bd a872 fcbb 33ac 7bba 6ac9 163d
00000200: ce40 dc3c 08e8 babc 9fab e5bc ef46 a83b
00000210: 93c3 f53c e594 7bbb 157c 85bb eab8 fbbc
00000220: 80fe 933c abf8 a93d d736 1e3d d70f ee3c
00000230: a95d ffbc 7da5 013d 91b8 123c 569d 98bb
00000240: 3f44 0abc 0d23 8bbb 3321 c83c 2186 40bd
00000250: a483 703c 36b9 c4bc 8faf 82bc a728 3cbb
00000260: ae28 e8bc a08d 773c 5798 993c c1c2 973c
00000270: edc3 be3b be3c 1f3d 06dd a0ba 8c06 21ba
00000280: c165 02bc 56e2 1b3d b6cf 453b 5a89 103c
00000290: 5c19 05bc a725 60bc 0d66 b1bc d8b3 07bc
000002a0: d1ea 23bd 41c8 96bb 42c1 293b 0757 c8bc
000002b0: a01e f039 58c4 4c3c f04f 6ebc 8e17 8c3a
000002c0: 564c 9c3c b5f1 343d fd2a fa3d 3515 23bb
000002d0: a82d a43a 2f28 573d 5a97 5a3d 5187 1a3c
000002e0: 1e1d 943b eff8 4fbb 9125 e6bc 04b4 3ebc
000002f0: 5912 05bd 55af 063c 5512 eabc 71c9 09bc
00000300: 0219 fabc 4312 10bc 8fe8 143d 39ce 36bb
00000310: 4b76 dc3b 972f 9bbd 7db6 363c cb48 42bc
00000320: 5f87 1f3c 3cb3 d2bc ed5a 103d eae6 173c
00000330: 3a46 a83c f9b3 6d3a 4095 463c 95ec 27bd
00000340: 7343 0dbd 1d8c 90bc 42bb dabb c84f a3bc
00000350: 4395 4f3c 7090 e2ba 1624 b13c c520 da3b
00000360: 11ef 2f3d 0b0d 6c3d 135d ea3c 3368 f2bc
00000370: 5515 9f3c ada1 3d3d 7a61 b83c 3ab6 253c
00000380: 1282 81bc eaec 08bd 87b3 523d 9139 413d
00000390: 25c4 a33d 547a c73c 5175 ddbc 455a 863c
000003a0: e337 46bd 46b1 3c3d 4f45 513d ed92 a7bc
000003b0: a774 84bd 2ec6 f8bc c482 133d e613 b8bc
000003c0: cdc5 373c d7dc efbc fe1e 593d c2d0 ca3b
000003d0: 7f0d b4bd 41a1 1e3c 80f6 e8bb 1471 53bd
000003e0: 0b44 08bd 3126 f8bc b078 6bbc d359 48bc
000003f0: 4d88 22bd e1d7 66bc 22cf d03b 1a2e 923b

bias f4 [128]
-0.052127853 0.03167683 -0.025623986 -0.012417632 -0.021551102 -0.048309445 0.016832238 -0.05561689
0.0145716285 0.06462221 -0.018777924 0.009711672 0.03528457 0.010318177 -0.040953852 -0.07070849
-0.067441285 -0.0029202548 -0.07471455 -0.022728901 -0.028084297 0.03962958 0.01306874 -0.051965874
-0.015197365 0.013133486 0.03250606 0.018770384 -0.06292623 0.053325374 0.017782254 0.06480719
-0.013168575 -0.05276957 -0.04398329 -0.06757656 0.044082038 0.034152728 0.051562633 0.023479687
0.024237653 -0.04084699 0.008690991 0.07766563 0.013231588 -0.010262353 0.0017918925 0.027668789
0.057159174 0.026958955 -0.0045561343 -0.024181427 -0.06446612 0.043839935 0.06901534 0.010829069
0.004182473 -0.051494516 0.003628372 0.021868665 0.08656216 0.001098984 0.014533429 -0.012651114
-0.02334944 -0.05922846 -0.014602776 -0.0075651677 -0.054915268 0.039783146 0.050499547 -0.046484638
-0.08447244 0.035687663 -0.029676711 -0.055082016 0.04499264 -0.027071293 -0.049083184 0.03400287
0.032562032 -0.03318028 0.024982855 0.028138617 0.02971592 0.027082872 0.028235644 0.035896666
0.000962685 -0.006580172 0.051967844 0.035980474 -0.02875673 -0.036735576 0.017657269 -0.0035289663
0.027626554 0.031412784 0.010101762 0.028066665 -0.055669095 -0.05375707 -0.0021832548 0.06522077
-0.0014889379 0.020712497 -0.0026831804 0.048781667 -0.027474824 0.04641057 0.037326448 0.024645947
0.029640496 -0.021196743 0.0088458005 0.03688789 -0.07399774 0.030315675 -0.0045796027 -0.035562307
-0.043355826 0.042358123 0.001723596 -0.04548552 -0.06261522 -0.0005870137 -0.0060141664 0.028740421
00000000: 0484 55bd 90bf 013d 65e9 d1bc 5373 4bbc
00000010: f08b b0bc 20e0 45bd c3e3 893c 89ce 63bd
00000020: d7bd 6e3c a658 843d 29d4 99bc b41d 1f3c
00000030: 8e86 103d 920d 293c 3abf 27bd 9dcf 90bd
00000040: a81e 8abd bf61 3fbb f103 99bd f631 babc
00000050: 0a11 e6bc a052 223d 451e 563c 2bda 54bd
00000060: 5efe 78bc d52d 573c 1325 053d 59c4 993c
00000070: 78df 80bd b56b 5a3d 17ac 913c a2b9 843d
00000080: 02c1 57bc e824 58bd d327 34bd 9465 8abd
00000090: 5e8f 343d bbe3 0b3d 5733 533d 7958 c03c
000000a0: 0b8e c63c 2c4f 27bd a964 0e3c 280f 9f3d
000000b0: 4dc9 583c 6e23 28bc efdd ea3a a8a9 e23c
000000c0: bd1f 6a3d 07d9 dc3c a04b 95bb 2118 c6bc
000000d0: d006 84bd 8191 333d ea57 8d3d 686c 313c
000000e0: 200d 893b eaeb 52bd fbc9 6d3b ea25 b33c
000000f0: 8047 b13d c90b 903a 9f1d 6e3c 9e46 4fbc
00000100: 5347 bfbc 8b99 72bd 7b40 6fbc 3ae5 f7bb
00000110: d5ee 60bd a7f3 223d 9dd8 4e3d ad66 3ebd
00000120: e3ff acbd 3a2d 123d 931c f3bc ae9d 61bd
00000130: 344a 383d 9ec4 ddbc 730b 49bd 9846 0b3d
00000140: c45f 053d 0ce8 07bd d8a8 cc3c f582 e63c
00000150: cd6e f33c e6dc dd3c 704e e73c 6208 133d
00000160: b25c 7c3a 7c9e d7bb 3cdc 543d 4360 133d
00000170: 3c93 ebbc 0b78 16bd faa5 903c 3b46 67bb
00000180: 1551 e23c b1aa 003d dc81 253c 10ec e53c
00000190: 4705 64bd 6030 5cbd f014 0fbb 7892 853d
000001a0: 7728 c3ba 41ad a93c 4cd8 2fbb 49cf 473d
000001b0: e212 e1bc 0319 3e3d 9ee3 183d 4ce6 c93c
000001c0: a0d0 f23c cba4 adbc faed 103c c217 173d
000001d0: 218c 97bd 9458 f83c 7e10 96bb c8a9 11bd
000001e0: e195 31bd b67f 2d3d 49ea e13a 064f 3abd
000001f0: 693c 80bd d3e1 19ba 7c12 c5bb 0871 eb3c

weight f4 [10, 128]
0.15372464 -0.2943411 -0.12637918 -0.22280957 -0.25414643 -0.26769346 -0.10089388 -0.45279443
-0.19957092 0.13514467 -0.236144 -0.117668584 -0.17831276 -0.16864952 0.15770233 -0.2580884
-0.12990959 0.071449056 -0.1469403 -0.17916851 -0.244669 0.07357639 0.11464283 -0.06683538
0.29204622 -0.29522035 -0.22216265 -0.25340974 -0.16930659 -0.010477788 -0.018207282 -0.08669988
-0.22434601 0.19136088 -0.072498366 -0.19876225 0.08899069 -0.13634598 -0.13740748 -0.19929478
-0.15573636 0.23695993 -0.004573105 -0.05674523 0.14719956 0.18083401 0.1106228 -0.3026818
-0.17846844 -0.04848872 -0.05415678 -0.14287624 -0.22786863 0.3008342 0.30998614 -0.17685378
-0.23511231 -0.17935559 0.2592872 -0.3518319 0.15551943 -0.25987282 -0.1709891 -0.19627643
-0.24388507 -0.047019612 0.018475225 -0.18872291 -0.2081575 -0.024958096 -0.2494524 0.12644038
0.108815 0.08189805 -0.14855939 0.03242348 0.06313636 -0.13014819 0.17460814 -0.15677015
0.2200203 -0.32072523 -0.12167795 -0.22762048 0.29883915 -0.08335664 0.04824956 0.056453597
0.26304096 -0.15975624 0.18896244 0.042274594 -0.30304393 -0.1703722 0.2606745 0.16818339
0.19792108 0.17548013 -0.20852895 -0.056771744 -0.22315854 -0.15334667 0.21618108 0.2198325
0.10845566 0.12786467 -0.09246309 -0.14112613 -0.20894758 -0.17711581 -0.29428688 -0.13467708
0.049437683 0.14708026 -0.03318984 -0.102279626 -0.19733556 0.100237094 0.15454096 -0.2284897
-0.10613941 0.17510486 0.2324969 0.14796497 0.19153719 0.05988235 -0.27764505 0.07782095
-0.21107428 0.14617431 -0.01379686 -0.22474162 0.21052752 -0.1292063 0.14761652 -0.08908582
0.329163 0.20159891 -0.062978715 0.1356152 0.20950903 0.12979661 -0.21513063 -0.13951936
-0.20845926 0.043447565 -0.143738 0.25929952 0.039988577 0.03175516 -0.029035171 -0.18702467
-0.087529786 0.22223781 0.15740894 0.19874482 -0.1558341 0.15771227 -0.06602689 0.33974507
0.18436874 -0.2387699 -0.23874807 -0.27462578 0.11046282 0.17982753 0.29189765 0.2348948
0.22300848 -0.10886904 0.13643219 0.24894023 -0.04705206 -0.2918421 -0.12684837 0.23099989
0.35519308 0.19886538 0.06471306 -0.20419364 -0.30122417 0.102921374 0.21929824 0.11859404
0.32611135 -0.24972837 -0.17652649 0.12743387 0.27452508 0.18122478 0.26162466 -0.01967463
0.0320664 -0.13951729 0.11196846 0.10394216 0.01743813 0.2347597 0.20283236 -0.22191906
-0.32592857 0.1752882 0.022695268 -0.29728538 0.1643838 -0.16666393 -0.29775786 0.19726421
0.33431157 0.012998614 0.09431549 0.20154484 -0.107139505 0.10076317 0.18964358 -0.06879434
-0.14924656 0.29253137 0.14386016 0.02633226 -0.19209448 -0.15723063 0.031815022 -0.32581154
-0.23037247 0.21240579 0.36312893 0.23879735 -0.2787284 -0.03218489 -0.14721128 0.01807601
0.0055710413 0.01138368 -0.08658225 0.23144816 0.16915296 0.25378975 0.24648261 0.11282777
0.2844437 -0.14354435 0.09476011 0.17802066 -0.21455188 0.08635385 0.09587762 -0.19213043
-0.18184134 0.17893733 -0.21709749 -0.13232848 -0.18905108 0.11846641 0.15481074 0.06766383
00000000: fe69 1d3e e0b3 96be 8b69 01be 3128 64be
00000010: 7b1f 82be 1e0f 89be 73a1 cebd acd4 e7be
00000020: 525c 4cbe 5d63 0a3e bccf 71be 3afc f0bd
00000030: 9f97 36be 76b2 2cbe b87c 213e 2a24 84be
00000040: 0507 05be e253 923d 8577 16be f377 37be
00000050: 838a 7abe 38af 963d dcc9 ea3d fde0 88bd
00000060: 1587 953e 1f27 97be 9b7e 63be ecbe 81be
00000070: b55e 2dbe 07ab 2bbc 7027 95bc b58f b1bd
00000080: f6ba 65be 1bf4 433e 067a 94bd 5588 4bbe
00000090: c040 b63d 489e 0bbe 8cb4 0cbe ee13 4cbe
000000a0: 5a79 1fbe a0a5 723e fcd9 95bb b06d 68bd
000000b0: 7bbb 163e 8d2c 393e 358e e23d 1cf9 9abe
000000c0: 6ec0 36be 1c9c 46bd 80d3 5dbd 264e 12be
000000d0: 6556 69be f106 9a3e 81b6 9e3e 2819 35be
000000e0: 48c1 70be fea8 37be 4bc1 843e 5023 b4be
000000f0: 7c40 1f3e 0d0e 85be c417 2fbe b0fc 48be
00000100: 02bd 79be a397 40bd 5b59 973c 9440 41be
00000110: 3d27 55be ec74 ccbc 7370 7fbe 9679 013e
00000120: 66da de3d 2aba a73d f41f 18be 7cce 043d
00000130: a34d 813d 9145 05be 7acc 323e 5b88 20be
00000140: 004d 613e 1936 a4be 4a32 f9bd 5815 69be
00000150: 7201 993e e3b6 aabd 55a1 453d e33b 673d
00000160: 4ead 863e 2497 23be 5f7f 413e 2028 2d3d
00000170: 9328 9bbe 0d76 2ebe 2177 853e 4438 2c3e
00000180: d3ab 4a3e 10b1 333e 9d88 55be 7d89 68bd
00000190: ac83 64be e906 1dbe 935e 5d3e c51b 613e
000001a0: 001e de3d f5ee 023e 4a5d bdbd 5e83 10be
000001b0: 5bf6 55be d95d 35be c5ac 96be cae8 09be
000001c0: 2b7f 4a3d 359c 163e 12f2 07bd fb77 d1bd
000001d0: 5512 4abe 1b49 cd3d fc3f 1e3e 34f9 69be
000001e0: 9e5f d9bd b04e 333e ab13 6e3e 2184 173e
000001f0: 5322 443e 3247 753d 7e27 8ebe 9760 9f3d
00000200: db23 58be b8ae 153e 3a0c 62bc ab22 66be
00000210: 8794 573e a84e 04be c928 173e a072 b6bd
00000220: 0e88 a83e f26f 4e3e fcfa 80bd b6de 0a3e
00000230: 8989 563e 67e9 043e 344b 5cbe 2ade 0ebe
00000240: 5876 55be 13f6 313d 0e30 13be e8c2 843e
00000250: 10cb 233d b311 023d 2bdb edbc 6583 3fbe
00000260: d142 b3bd 4f92 633e cf2f 213e c383 4b3e
00000270: f992 1fbe 537f 213e 1b39 87bd 11f3 ad3e
00000280: 29cb 3c3e 1980 74be 607a 74be c09b 8cbe
00000290: 553a e23d b524 383e 9c73 953e 4388 703e
000002a0: 565c 643e bbf6 debd e1b4 0b3e 30ea 7e3e
000002b0: a9b9 40bd 546c 95be 8ae4 01be 3c8b 6c3e
000002c0: dedb b53e 5ea3 4b3e 4888 843d 2318 51be
000002d0: 0e3a 9abe 71c8 d23d b88f 603e 6fe1 f23d
000002e0: 11f8 a63e cbb8 7fbe 5cc3 34be 067e 023e
000002f0: 8d8e 8c3e fd92 393e abf3 853e b12c a1bc
00000300: 0f58 033d 9fdd 0ebe b84f e53d a1df d43d
00000310: 69da 8e3c d964 703e 49b3 4f3e c03e 63be
00000320: 1ce0 a6be c07e 333e 6deb b93c ca35 98be
00000330: 3a54 283e f3a9 2abe b873 98be a1ff 493e
00000340: e32a ab3e 24f8 543c 7b28 c13d c561 4e3e
00000350: f56b dbbd ec5c ce3d ed31 423e 0ce4 8cbd
00000360: 17d4 18be acc6 953e 1450 133e c0b6 d73c
00000370: 6ab4 44be 1101 21be 7850 023d c5d0 a6be
00000380: c3e6 6bbe e780 593e 09ec b93e 4b87 743e
00000390: 7db5 8ebe 4ed4 03bd 8ebe 16be 2414 943c
000003a0: 488d b63b 9d82 3a3c 0952 b1bd bf00 6d3e
000003b0: 6f36 2d3e bbf0 813e f065 7c3e 3f12 e73d
000003c0: 9ba2 913e 4afd 12be 9711 c23d 0c4b 363e
000003d0: 7db3 5bbe 4ada b03d 7c5b c43d d7bd 44be
000003e0: 9e34 3abe 593b 373e ce4e 5ebe 1e81 07be
000003f0: 9b96 41be 849e f23d b586 1e3e 5693 8a3d

bias f4 [10]
-0.042169467 0.19212168 0.031075364 -0.08391123 -0.12717299 -0.03719815 -0.2068086 0.0107985195
0.15748662 0.015002459
00000000: e4b9 2cbd 8cbb 443e c391 fe3c a7d9 abbd
00000010: a339 02be 165d 18bd a2c5 53be 46ec 303c
00000020: 2c44 213e e0cc 753c
